…
 1, output_dim = 16, input_length = max_length) %&gt;% layer_conv_1d(filter = 32, kernel_size = 5, activation = &quot;relu&quot;) %&gt;% layer_global_max_pooling_1d() %&gt;% layer_dense(units = 64, activation = &quot;relu&quot;) %&gt;% layer_dense(units = 1, activation = &quot;sigmoid&quot;) simple_cnn_model #&gt; Model #&gt; Model: &quot;sequential&quot; #&gt; ________________________________________________________________________________ #&gt; Layer (type) Output Shape Param # #&gt; ================================================================================ #&gt; embedding (Embedding) (None, 30, 16) 320016 #&gt; ________________________________________________________________________________ #&gt; conv1d (Conv1D) (None, 26, 32) 2592 #&gt; ________________________________________________________________________________ #&gt; global_max_pooling1d (GlobalMaxPool (None, 32) 0 #&gt; ________________________________________________________________________________ #&gt; dense_1 (Dense) (None, 64) 2112 #&gt; ________________________________________________________________________________ #&gt; dense (Dense) (None, 1) 65 #&gt; ================================================================================ #&gt; Total params: 324,785 #&gt; Trainable params: 324,785 #&gt; Non-trainable params: 0 #&gt; ________________________________________________________________________________ We are using the same embedding layer with the same max_length as in the previous networks so there is nothing new there. The layer_glo
…
1d(filter = 32, kernel_size = 5, activation = &quot;relu&quot;) %&gt;% layer_global_max_pooling_1d() %&gt;% layer_dense(units = 64, activation = &quot;relu&quot;) %&gt;% layer_dense(units = 64, activation = &quot;relu&quot;) %&gt;% layer_dense(units = 1, activation = &quot;sigmoid&quot;) cnn_double_dense #&gt; Model #&gt; Model: &quot;sequential_1&quot; #&gt; ________________________________________________________________________________ #&gt; Layer (type) Output Shape Param # #&gt; ================================================================================ #&gt; embedding_1 (Embedding) (None, 30, 16) 320016 #&gt; ________________________________________________________________________________ #&gt; conv1d_1 (Conv1D) (None, 26, 32) 2592 #&gt; ________________________________________________________________________________ #&gt; global_max_pooling1d_1 (GlobalMaxPo (None, 32) 0 #&gt; ________________________________________________________________________________ #&gt; dense_4 (Dense) (None, 64) 2112 #&gt; ________________________________________________________________________________ #&gt; dense_3 (Dense) (None, 64) 4160 #&gt; ________________________________________________________________________________ #&gt; dense_2 (Dense) (None, 1) 65 #&gt; ================================================================================ #&gt; Total params: 328,945 #&gt; Trainable params: 328,945 #&gt; Non-trainable params: 0 #&gt; ________________________________________________________________________________ We can compile and fit this new model. We will try to keep as much as we can constant as we compare the different models. cnn_double_de
…
) %&gt;% layer_max_pooling_1d(pool_size = 2) %&gt;% layer_conv_1d(filter = 64, kernel_size = 3, activation = &quot;relu&quot;) %&gt;% layer_global_max_pooling_1d() %&gt;% layer_dense(units = 64, activation = &quot;relu&quot;) %&gt;% layer_dense(units = 1, activation = &quot;sigmoid&quot;) cnn_double_conv #&gt; Model #&gt; Model: &quot;sequential_2&quot; #&gt; ________________________________________________________________________________ #&gt; Layer (type) Output Shape Param # #&gt; ================================================================================ #&gt; embedding_2 (Embedding) (None, 30, 16) 320016 #&gt; ________________________________________________________________________________ #&gt; conv1d_3 (Conv1D) (None, 26, 32) 2592 #&gt; ________________________________________________________________________________ #&gt; max_pooling1d (MaxPooling1D) (None, 13, 32) 0 #&gt; ________________________________________________________________________________ #&gt; conv1d_2 (Conv1D) (None, 11, 64) 6208 #&gt; ________________________________________________________________________________ #&gt; global_max_pooling1d_2 (GlobalMaxPo (None, 64) 0 #&gt; ________________________________________________________________________________ #&gt; dense_6 (Dense) (None, 64) 4160 #&gt; ________________________________________________________________________________ #&gt; dense_5 (Dense) (None, 1) 65 #&gt; ================================================================================ #&gt; Total params: 333,041 #&gt; Trainable params: 333,041 #&gt; Non-trainable params: 0 #&gt; ________________________________________________________________________________ There are a lot of different ways we can extend the network by adding convolutional layers with layer_conv_1d(). We must consider the i
…
+ 1, output_dim = 16, input_length = bpe_max_length) %&gt;% layer_conv_1d(filter = 32, kernel_size = 7, activation = &quot;relu&quot;) %&gt;% layer_global_max_pooling_1d() %&gt;% layer_dense(units = 64, activation = &quot;relu&quot;) %&gt;% layer_dense(units = 1, activation = &quot;sigmoid&quot;) cnn_bpe #&gt; Model #&gt; Model: &quot;sequential_3&quot; #&gt; ________________________________________________________________________________ #&gt; Layer (type) Output Shape Param # #&gt; ================================================================================ #&gt; embedding_3 (Embedding) (None, 40, 16) 320016 #&gt; ________________________________________________________________________________ #&gt; conv1d_4 (Conv1D) (None, 34, 32) 3616 #&gt; ________________________________________________________________________________ #&gt; global_max_pooling1d_3 (GlobalMaxPo (None, 32) 0 #&gt; ________________________________________________________________________________ #&gt; dense_8 (Dense) (None, 64) 2112 #&gt; ________________________________________________________________________________ #&gt; dense_7 (Dense) (None, 1) 65 #&gt; ================================================================================ #&gt; Total params: 325,809 #&gt; Trainable params: 325,809 #&gt; Non-trainable params: 0 #&gt; ________________________________________________________________________________ We can compile and train like we have done so many times now. cnn_bpe %&gt;% compile( optimizer = &quot;adam&quot;, loss = &quot;binary
…
